{"config": [{"config": {"trainable": true, "bias_constraint": null, "batch_input_shape": [null, 16, 112, 112, 3], "dtype": "float32", "bias_regularizer": null, "name": "conv1", "activity_regularizer": null, "kernel_size": [3, 3, 3], "kernel_regularizer": null, "use_bias": true, "data_format": "channels_last", "activation": "relu", "filters": 64, "padding": "same", "kernel_constraint": null, "bias_initializer": {"config": {}, "class_name": "Zeros"}, "strides": [1, 1, 1], "kernel_initializer": {"config": {"mode": "fan_avg", "seed": null, "scale": 1.0, "distribution": "uniform"}, "class_name": "VarianceScaling"}, "dilation_rate": [1, 1, 1]}, "class_name": "Conv3D"}, {"config": {"trainable": true, "name": "pool1", "data_format": "channels_last", "pool_size": [1, 2, 2], "padding": "valid", "strides": [1, 2, 2]}, "class_name": "MaxPooling3D"}, {"config": {"trainable": true, "bias_constraint": null, "bias_regularizer": null, "name": "conv2", "activity_regularizer": null, "kernel_size": [3, 3, 3], "kernel_regularizer": null, "use_bias": true, "data_format": "channels_last", "activation": "relu", "filters": 128, "padding": "same", "kernel_constraint": null, "bias_initializer": {"config": {}, "class_name": "Zeros"}, "strides": [1, 1, 1], "kernel_initializer": {"config": {"mode": "fan_avg", "seed": null, "scale": 1.0, "distribution": "uniform"}, "class_name": "VarianceScaling"}, "dilation_rate": [1, 1, 1]}, "class_name": "Conv3D"}, {"config": {"trainable": true, "name": "pool2", "data_format": "channels_last", "pool_size": [2, 2, 2], "padding": "valid", "strides": [2, 2, 2]}, "class_name": "MaxPooling3D"}, {"config": {"trainable": true, "bias_constraint": null, "bias_regularizer": null, "name": "conv3a", "activity_regularizer": null, "kernel_size": [3, 3, 3], "kernel_regularizer": null, "use_bias": true, "data_format": "channels_last", "activation": "relu", "filters": 256, "padding": "same", "kernel_constraint": null, "bias_initializer": {"config": {}, "class_name": "Zeros"}, "strides": [1, 1, 1], "kernel_initializer": {"config": {"mode": "fan_avg", "seed": null, "scale": 1.0, "distribution": "uniform"}, "class_name": "VarianceScaling"}, "dilation_rate": [1, 1, 1]}, "class_name": "Conv3D"}, {"config": {"trainable": true, "bias_constraint": null, "bias_regularizer": null, "name": "conv3b", "activity_regularizer": null, "kernel_size": [3, 3, 3], "kernel_regularizer": null, "use_bias": true, "data_format": "channels_last", "activation": "relu", "filters": 256, "padding": "same", "kernel_constraint": null, "bias_initializer": {"config": {}, "class_name": "Zeros"}, "strides": [1, 1, 1], "kernel_initializer": {"config": {"mode": "fan_avg", "seed": null, "scale": 1.0, "distribution": "uniform"}, "class_name": "VarianceScaling"}, "dilation_rate": [1, 1, 1]}, "class_name": "Conv3D"}, {"config": {"trainable": true, "name": "pool3", "data_format": "channels_last", "pool_size": [2, 2, 2], "padding": "valid", "strides": [2, 2, 2]}, "class_name": "MaxPooling3D"}, {"config": {"trainable": true, "bias_constraint": null, "bias_regularizer": null, "name": "conv4a", "activity_regularizer": null, "kernel_size": [3, 3, 3], "kernel_regularizer": null, "use_bias": true, "data_format": "channels_last", "activation": "relu", "filters": 512, "padding": "same", "kernel_constraint": null, "bias_initializer": {"config": {}, "class_name": "Zeros"}, "strides": [1, 1, 1], "kernel_initializer": {"config": {"mode": "fan_avg", "seed": null, "scale": 1.0, "distribution": "uniform"}, "class_name": "VarianceScaling"}, "dilation_rate": [1, 1, 1]}, "class_name": "Conv3D"}, {"config": {"trainable": true, "bias_constraint": null, "bias_regularizer": null, "name": "conv4b", "activity_regularizer": null, "kernel_size": [3, 3, 3], "kernel_regularizer": null, "use_bias": true, "data_format": "channels_last", "activation": "relu", "filters": 512, "padding": "same", "kernel_constraint": null, "bias_initializer": {"config": {}, "class_name": "Zeros"}, "strides": [1, 1, 1], "kernel_initializer": {"config": {"mode": "fan_avg", "seed": null, "scale": 1.0, "distribution": "uniform"}, "class_name": "VarianceScaling"}, "dilation_rate": [1, 1, 1]}, "class_name": "Conv3D"}, {"config": {"trainable": true, "name": "pool4", "data_format": "channels_last", "pool_size": [2, 2, 2], "padding": "valid", "strides": [2, 2, 2]}, "class_name": "MaxPooling3D"}, {"config": {"trainable": true, "bias_constraint": null, "bias_regularizer": null, "name": "conv5a", "activity_regularizer": null, "kernel_size": [3, 3, 3], "kernel_regularizer": null, "use_bias": true, "data_format": "channels_last", "activation": "relu", "filters": 512, "padding": "same", "kernel_constraint": null, "bias_initializer": {"config": {}, "class_name": "Zeros"}, "strides": [1, 1, 1], "kernel_initializer": {"config": {"mode": "fan_avg", "seed": null, "scale": 1.0, "distribution": "uniform"}, "class_name": "VarianceScaling"}, "dilation_rate": [1, 1, 1]}, "class_name": "Conv3D"}, {"config": {"trainable": true, "bias_constraint": null, "bias_regularizer": null, "name": "conv5b", "activity_regularizer": null, "kernel_size": [3, 3, 3], "kernel_regularizer": null, "use_bias": true, "data_format": "channels_last", "activation": "relu", "filters": 512, "padding": "same", "kernel_constraint": null, "bias_initializer": {"config": {}, "class_name": "Zeros"}, "strides": [1, 1, 1], "kernel_initializer": {"config": {"mode": "fan_avg", "seed": null, "scale": 1.0, "distribution": "uniform"}, "class_name": "VarianceScaling"}, "dilation_rate": [1, 1, 1]}, "class_name": "Conv3D"}, {"config": {"trainable": true, "name": "zeropad5", "data_format": "channels_last", "padding": [[0, 0], [0, 1], [0, 1]]}, "class_name": "ZeroPadding3D"}, {"config": {"trainable": true, "name": "pool5", "data_format": "channels_last", "pool_size": [2, 2, 2], "padding": "valid", "strides": [2, 2, 2]}, "class_name": "MaxPooling3D"}, {"config": {"trainable": true, "name": "flatten_1"}, "class_name": "Flatten"}, {"config": {"trainable": true, "bias_constraint": null, "bias_regularizer": null, "activity_regularizer": null, "name": "fc6", "units": 4096, "kernel_regularizer": null, "use_bias": true, "activation": "relu", "bias_initializer": {"config": {}, "class_name": "Zeros"}, "kernel_initializer": {"config": {"mode": "fan_avg", "seed": null, "scale": 1.0, "distribution": "uniform"}, "class_name": "VarianceScaling"}, "kernel_constraint": null}, "class_name": "Dense"}, {"config": {"noise_shape": null, "trainable": true, "name": "dropout_1", "seed": null, "rate": 0.5}, "class_name": "Dropout"}, {"config": {"trainable": true, "bias_constraint": null, "bias_regularizer": null, "activity_regularizer": null, "name": "fc7", "units": 4096, "kernel_regularizer": null, "use_bias": true, "activation": "relu", "bias_initializer": {"config": {}, "class_name": "Zeros"}, "kernel_initializer": {"config": {"mode": "fan_avg", "seed": null, "scale": 1.0, "distribution": "uniform"}, "class_name": "VarianceScaling"}, "kernel_constraint": null}, "class_name": "Dense"}, {"config": {"noise_shape": null, "trainable": true, "name": "dropout_2", "seed": null, "rate": 0.5}, "class_name": "Dropout"}, {"config": {"trainable": true, "bias_constraint": null, "bias_regularizer": null, "activity_regularizer": null, "name": "fc8", "units": 487, "kernel_regularizer": null, "use_bias": true, "activation": "softmax", "bias_initializer": {"config": {}, "class_name": "Zeros"}, "kernel_initializer": {"config": {"mode": "fan_avg", "seed": null, "scale": 1.0, "distribution": "uniform"}, "class_name": "VarianceScaling"}, "kernel_constraint": null}, "class_name": "Dense"}], "keras_version": "2.1.1", "class_name": "Sequential", "backend": "tensorflow"}